(100, 400, 400, 2)
(100, 400, 400, 3)
(84, 400, 400, 3)
__________________________________________________________________________________________________
Layer (type)                    Output Shape         Param #     Connected to                     
==================================================================================================
img (InputLayer)                (None, 400, 400, 3)  0                                            
__________________________________________________________________________________________________
conv2d_1 (Conv2D)               (None, 400, 400, 16) 448         img[0][0]                        
__________________________________________________________________________________________________
batch_normalization_1 (BatchNor (None, 400, 400, 16) 64          conv2d_1[0][0]                   
__________________________________________________________________________________________________
activation_1 (Activation)       (None, 400, 400, 16) 0           batch_normalization_1[0][0]      
__________________________________________________________________________________________________
conv2d_2 (Conv2D)               (None, 400, 400, 16) 2320        activation_1[0][0]               
__________________________________________________________________________________________________
batch_normalization_2 (BatchNor (None, 400, 400, 16) 64          conv2d_2[0][0]                   
__________________________________________________________________________________________________
activation_2 (Activation)       (None, 400, 400, 16) 0           batch_normalization_2[0][0]      
__________________________________________________________________________________________________
max_pooling2d_1 (MaxPooling2D)  (None, 200, 200, 16) 0           activation_2[0][0]               
__________________________________________________________________________________________________
dropout_1 (Dropout)             (None, 200, 200, 16) 0           max_pooling2d_1[0][0]            
__________________________________________________________________________________________________
conv2d_3 (Conv2D)               (None, 200, 200, 32) 4640        dropout_1[0][0]                  
__________________________________________________________________________________________________
batch_normalization_3 (BatchNor (None, 200, 200, 32) 128         conv2d_3[0][0]                   
__________________________________________________________________________________________________
activation_3 (Activation)       (None, 200, 200, 32) 0           batch_normalization_3[0][0]      
__________________________________________________________________________________________________
conv2d_4 (Conv2D)               (None, 200, 200, 32) 9248        activation_3[0][0]               
__________________________________________________________________________________________________
batch_normalization_4 (BatchNor (None, 200, 200, 32) 128         conv2d_4[0][0]                   
__________________________________________________________________________________________________
activation_4 (Activation)       (None, 200, 200, 32) 0           batch_normalization_4[0][0]      
__________________________________________________________________________________________________
max_pooling2d_2 (MaxPooling2D)  (None, 100, 100, 32) 0           activation_4[0][0]               
__________________________________________________________________________________________________
dropout_2 (Dropout)             (None, 100, 100, 32) 0           max_pooling2d_2[0][0]            
__________________________________________________________________________________________________
conv2d_5 (Conv2D)               (None, 100, 100, 64) 18496       dropout_2[0][0]                  
__________________________________________________________________________________________________
batch_normalization_5 (BatchNor (None, 100, 100, 64) 256         conv2d_5[0][0]                   
__________________________________________________________________________________________________
activation_5 (Activation)       (None, 100, 100, 64) 0           batch_normalization_5[0][0]      
__________________________________________________________________________________________________
conv2d_6 (Conv2D)               (None, 100, 100, 64) 36928       activation_5[0][0]               
__________________________________________________________________________________________________
batch_normalization_6 (BatchNor (None, 100, 100, 64) 256         conv2d_6[0][0]                   
__________________________________________________________________________________________________
activation_6 (Activation)       (None, 100, 100, 64) 0           batch_normalization_6[0][0]      
__________________________________________________________________________________________________
max_pooling2d_3 (MaxPooling2D)  (None, 50, 50, 64)   0           activation_6[0][0]               
__________________________________________________________________________________________________
dropout_3 (Dropout)             (None, 50, 50, 64)   0           max_pooling2d_3[0][0]            
__________________________________________________________________________________________________
conv2d_7 (Conv2D)               (None, 50, 50, 128)  73856       dropout_3[0][0]                  
__________________________________________________________________________________________________
batch_normalization_7 (BatchNor (None, 50, 50, 128)  512         conv2d_7[0][0]                   
__________________________________________________________________________________________________
activation_7 (Activation)       (None, 50, 50, 128)  0           batch_normalization_7[0][0]      
__________________________________________________________________________________________________
conv2d_8 (Conv2D)               (None, 50, 50, 128)  147584      activation_7[0][0]               
__________________________________________________________________________________________________
batch_normalization_8 (BatchNor (None, 50, 50, 128)  512         conv2d_8[0][0]                   
__________________________________________________________________________________________________
activation_8 (Activation)       (None, 50, 50, 128)  0           batch_normalization_8[0][0]      
__________________________________________________________________________________________________
max_pooling2d_4 (MaxPooling2D)  (None, 10, 10, 128)  0           activation_8[0][0]               
__________________________________________________________________________________________________
dropout_4 (Dropout)             (None, 10, 10, 128)  0           max_pooling2d_4[0][0]            
__________________________________________________________________________________________________
conv2d_9 (Conv2D)               (None, 10, 10, 256)  295168      dropout_4[0][0]                  
__________________________________________________________________________________________________
batch_normalization_9 (BatchNor (None, 10, 10, 256)  1024        conv2d_9[0][0]                   
__________________________________________________________________________________________________
activation_9 (Activation)       (None, 10, 10, 256)  0           batch_normalization_9[0][0]      
__________________________________________________________________________________________________
conv2d_10 (Conv2D)              (None, 10, 10, 256)  590080      activation_9[0][0]               
__________________________________________________________________________________________________
batch_normalization_10 (BatchNo (None, 10, 10, 256)  1024        conv2d_10[0][0]                  
__________________________________________________________________________________________________
activation_10 (Activation)      (None, 10, 10, 256)  0           batch_normalization_10[0][0]     
__________________________________________________________________________________________________
conv2d_transpose_1 (Conv2DTrans (None, 50, 50, 128)  295040      activation_10[0][0]              
__________________________________________________________________________________________________