…
   [0.]
   ...
   [0.]
   [0.]
   [0.]]

  [[0.]
   [0.]
   [0.]
   ...
   [1.]
   [1.]
   [1.]]

  ...

  [[0.]
   [0.]
   [0.]
   ...
   [0.]
   [0.]
   [0.]]

  [[0.]
   [0.]
   [0.]
   ...
   [0.]
   [0.]
   [0.]]

  [[0.]
   [0.]
   [0.]
   ...
   [0.]
   [0.]
   [0.]]]]
__________________________________________________________________________________________________
Layer (type)                    Output Shape         Param #     Connected to                     
==================================================================================================
img (InputLayer)                (None, 120, 120, 3)  0                                            
__________________________________________________________________________________________________
conv2d_1 (Conv2D)               (None, 120, 120, 16) 448         img[0][0]                        
__________________________________________________________________________________________________
dropout_1 (Dropout)             (None, 120, 120, 16) 0           conv2d_1[0][0]                   
__________________________________________________________________________________________________
conv2d_2 (Conv2D)               (None, 120, 120, 16) 2320        dropout_1[0][0]                  
__________________________________________________________________________________________________
max_pooling2d_1 (MaxPooling2D)  (None, 60, 60, 16)   0           conv2d_2[0][0]                   
__________________________________________________________________________________________________
conv2d_3 (Conv2D)               (None, 60, 60, 32)   4640        max_pooling2d_1[0][0]            
__________________________________________________________________________________________________
dropout_2 (Dropout)             (None, 60, 60, 32)   0           conv2d_3[0][0]                   
__________________________________________________________________________________________________
conv2d_4 (Conv2D)               (None, 60, 60, 32)   9248        dropout_2[0][0]                  
__________________________________________________________________________________________________
max_pooling2d_2 (MaxPooling2D)  (None, 30, 30, 32)   0           conv2d_4[0][0]                   
__________________________________________________________________________________________________
conv2d_5 (Conv2D)               (None, 30, 30, 64)   18496       max_pooling2d_2[0][0]            
__________________________________________________________________________________________________
dropout_3 (Dropout)             (None, 30, 30, 64)   0           conv2d_5[0][0]                   
__________________________________________________________________________________________________
conv2d_6 (Conv2D)               (None, 30, 30, 64)   36928       dropout_3[0][0]                  
__________________________________________________________________________________________________
max_pooling2d_3 (MaxPooling2D)  (None, 5, 5, 64)     0           conv2d_6[0][0]                   
__________________________________________________________________________________________________
conv2d_7 (Conv2D)               (None, 5, 5, 128)    73856       max_pooling2d_3[0][0]            
__________________________________________________________________________________________________
dropout_4 (Dropout)             (None, 5, 5, 128)    0           conv2d_7[0][0]                   
__________________________________________________________________________________________________
conv2d_8 (Conv2D)               (None, 5, 5, 128)    147584      dropout_4[0][0]                  
__________________________________________________________________________________________________
max_pooling2d_4 (MaxPooling2D)  (None, 1, 1, 128)    0           conv2d_8[0][0]                   
__________________________________________________________________________________________________
conv2d_9 (Conv2D)               (None, 1, 1, 256)    295168      max_pooling2d_4[0][0]            
__________________________________________________________________________________________________
dropout_5 (Dropout)             (None, 1, 1, 256)    0           conv2d_9[0][0]                   
__________________________________________________________________________________________________
conv2d_10 (Conv2D)              (None, 1, 1, 256)    590080      dropout_5[0][0]                  
__________________________________________________________________________________________________
conv2d_transpose_1 (Conv2DTrans (None, 5, 5, 128)    295040      conv2d_10[0][0]                  
__________________________________________________________________________________________________
concatenate_1 (Concatenate)     (None, 5, 5, 256)    0           conv2d_transpose_1[0][0]         
                                                                 conv2d_8[0][0]                   
__________________________________________________________________________________________________
conv2d_11 (Conv2D)              (None, 5, 5, 128)    295040      concatenate_1[0][0]              
__________________________________________________________________________________________________
dropout_6 (Dropout)             (None, 5, 5, 128)    0           conv2d_11[0][0]                  
__________________________________________________________________________________________________
conv2d_12 (Conv2D)              (None, 5, 5, 128)    147584      dropout_6[0][0]                  
__________________________________________________________________________________________________
conv2d_transpose_2 (Conv2DTrans (None, 30, 30, 64)   73792       conv2d_12[0][0]                  
__________________________________________________________________________________________________
concatenate_2 (Concatenate)     (None, 30, 30, 128)  0           conv2d_transpose_2[0][0]         
                                                                 conv2d_6[0][0]                   
__________________________________________________________________________________________________
conv2d_13 (Conv2D)              (None, 30, 30, 64)   73792       concatenate_2[0][0]              
__________________________________________________________________________________________________
dropout_7 (Dropout)             (None, 30, 30, 64)   0           conv2d_13[0][0]                  
__________________________________________________________________________________________________
conv2d_14 (Conv2D)              (None, 30, 30, 64)   36928       dropout_7[0][0]                  
__________________________________________________________________________________________________
conv2d_transpose_3 (Conv2DTrans (None, 60, 60, 32)   18464       conv2d_14[0][0]                  
__________________________________________________________________________________________________
concatenate_3 (Concatenate)     (None, 60, 60, 64)   0           conv2d_transpose_3[0][0]         
                                                                 conv2d_4[0][0]                   
__________________________________________________________________________________________________
conv2d_15 (Conv2D)              (None, 60, 60, 32)   18464       concatenate_3[0][0]              
__________________________________________________________________________________________________
dropout_8 (Dropout)             (None, 60, 60, 32)   0           conv2d_15[0][0]                  
__________________________________________________________________________________________________
conv2d_16 (Conv2D)              (None, 60, 60, 32)   9248        dropout_8[0][0]                  
__________________________________________________________________________________________________
conv2d_transpose_4 (Conv2DTrans (None, 120, 120, 16) 4624        conv2d_16[0][0]                  
__________________________________________________________________________________________________
concatenate_4 (Concatenate)     (None, 120, 120, 32) 0           conv2d_transpose_4[0][0]         
                                                                 conv2d_2[0][0]                   
__________________________________________________________________________________________________
conv2d_17 (Conv2D)              (None, 120, 120, 16) 4624        concatenate_4[0][0]              
__________________________________________________________________________________________________
dropout_9 (Dropout)             (None, 120, 120, 16) 0           conv2d_17[0][0]                  
__________________________________________________________________________________________________
conv2d_18 (Conv2D)              (None, 120, 120, 16) 2320        dropout_9[0][0]                  
__________________________________________________________________________________________________
conv2d_19 (Conv2D)              (None, 120, 120, 1)  17          conv2d_18[0][0]                  
==================================================================================================
Total params: 2,158,705
Trainable params: 2,158,705
Non-trainable params: 0
__________________________________________________________________________________________________
Train on 20118 samples, validate on 320 samples
Epoch 1/80
2018-12-19 18:19:33.411404: I tensorflow/core/platform/cpu_feature_guard.cc:141] Your CPU supports instructions that this TensorFlow binary was not compiled to use: AVX2 FMA
…
